NN_training/model.onnx (onnx, 276113 bytes, 7 tensors)

lstm_initial_h f4 [1, 1, 128]
0	0x00000000	0.0
1	0x00000000	0.0
2	0x00000000	0.0
3	0x00000000	0.0
4	0x00000000	0.0
5	0x00000000	0.0
6	0x00000000	0.0
7	0x00000000	0.0
8	0x00000000	0.0
9	0x00000000	0.0
10	0x00000000	0.0
11	0x00000000	0.0
12	0x00000000	0.0
13	0x00000000	0.0
14	0x00000000	0.0
15	0x00000000	0.0
16	0x00000000	0.0
17	0x00000000	0.0
18	0x00000000	0.0
19	0x00000000	0.0
20	0x00000000	0.0
21	0x00000000	0.0
22	0x00000000	0.0
23	0x00000000	0.0
24	0x00000000	0.0
25	0x00000000	0.0
26	0x00000000	0.0
27	0x00000000	0.0
28	0x00000000	0.0
29	0x00000000	0.0
30	0x00000000	0.0
31	0x00000000	0.0
32	0x00000000	0.0
33	0x00000000	0.0
34	0x00000000	0.0
35	0x00000000	0.0
36	0x00000000	0.0
37	0x00000000	0.0
38	0x00000000	0.0
39	0x00000000	0.0
40	0x00000000	0.0
41	0x00000000	0.0
42	0x00000000	0.0
43	0x00000000	0.0
44	0x00000000	0.0
45	0x00000000	0.0
46	0x00000000	0.0
47	0x00000000	0.0
48	0x00000000	0.0
49	0x00000000	0.0
50	0x00000000	0.0
51	0x00000000	0.0
52	0x00000000	0.0
53	0x00000000	0.0
54	0x00000000	0.0
55	0x00000000	0.0
56	0x00000000	0.0
57	0x00000000	0.0
58	0x00000000	0.0
59	0x00000000	0.0
60	0x00000000	0.0
61	0x00000000	0.0
62	0x00000000	0.0
63	0x00000000	0.0
64	0x00000000	0.0
65	0x00000000	0.0
66	0x00000000	0.0
67	0x00000000	0.0
68	0x00000000	0.0
69	0x00000000	0.0
70	0x00000000	0.0
71	0x00000000	0.0
72	0x00000000	0.0
73	0x00000000	0.0
74	0x00000000	0.0
75	0x00000000	0.0
76	0x00000000	0.0
77	0x00000000	0.0
78	0x00000000	0.0
79	0x00000000	0.0
80	0x00000000	0.0
81	0x00000000	0.0
82	0x00000000	0.0
83	0x00000000	0.0
84	0x00000000	0.0
85	0x00000000	0.0
86	0x00000000	0.0
87	0x00000000	0.0
88	0x00000000	0.0
89	0x00000000	0.0
90	0x00000000	0.0
91	0x00000000	0.0
92	0x00000000	0.0
93	0x00000000	0.0
94	0x00000000	0.0
95	0x00000000	0.0
96	0x00000000	0.0
97	0x00000000	0.0
98	0x00000000	0.0
99	0x00000000	0.0
100	0x00000000	0.0
101	0x00000000	0.0
102	0x00000000	0.0
103	0x00000000	0.0
104	0x00000000	0.0
105	0x00000000	0.0
106	0x00000000	0.0
107	0x00000000	0.0
108	0x00000000	0.0
109	0x00000000	0.0
110	0x00000000	0.0
111	0x00000000	0.0
112	0x00000000	0.0
113	0x00000000	0.0
114	0x00000000	0.0
115	0x00000000	0.0
116	0x00000000	0.0
117	0x00000000	0.0
118	0x00000000	0.0
119	0x00000000	0.0
120	0x00000000	0.0
121	0x00000000	0.0
122	0x00000000	0.0
123	0x00000000	0.0
124	0x00000000	0.0
125	0x00000000	0.0
126	0x00000000	0.0
127	0x00000000	0.0

lstm_initial_c f4 [1, 1, 128]
0	0x00000000	0.0
1	0x00000000	0.0
2	0x00000000	0.0
3	0x00000000	0.0
4	0x00000000	0.0
5	0x00000000	0.0
6	0x00000000	0.0
7	0x00000000	0.0
8	0x00000000	0.0
9	0x00000000	0.0
10	0x00000000	0.0
11	0x00000000	0.0
12	0x00000000	0.0
13	0x00000000	0.0
14	0x00000000	0.0
15	0x00000000	0.0
16	0x00000000	0.0
17	0x00000000	0.0
18	0x00000000	0.0
19	0x00000000	0.0
20	0x00000000	0.0
21	0x00000000	0.0
22	0x00000000	0.0
23	0x00000000	0.0
24	0x00000000	0.0
25	0x00000000	0.0
26	0x00000000	0.0
27	0x00000000	0.0
28	0x00000000	0.0
29	0x00000000	0.0
30	0x00000000	0.0
31	0x00000000	0.0
32	0x00000000	0.0
33	0x00000000	0.0
34	0x00000000	0.0
35	0x00000000	0.0
36	0x00000000	0.0
37	0x00000000	0.0
38	0x00000000	0.0
39	0x00000000	0.0
40	0x00000000	0.0
41	0x00000000	0.0
42	0x00000000	0.0
43	0x00000000	0.0
44	0x00000000	0.0
45	0x00000000	0.0
46	0x00000000	0.0
47	0x00000000	0.0
48	0x00000000	0.0
49	0x00000000	0.0
50	0x00000000	0.0
51	0x00000000	0.0
52	0x00000000	0.0
53	0x00000000	0.0
54	0x00000000	0.0
55	0x00000000	0.0
56	0x00000000	0.0
57	0x00000000	0.0
58	0x00000000	0.0
59	0x00000000	0.0
60	0x00000000	0.0
61	0x00000000	0.0
62	0x00000000	0.0
63	0x00000000	0.0
64	0x00000000	0.0
65	0x00000000	0.0
66	0x00000000	0.0
67	0x00000000	0.0
68	0x00000000	0.0
69	0x00000000	0.0
70	0x00000000	0.0
71	0x00000000	0.0
72	0x00000000	0.0
73	0x00000000	0.0
74	0x00000000	0.0
75	0x00000000	0.0
76	0x00000000	0.0
77	0x00000000	0.0
78	0x00000000	0.0
79	0x00000000	0.0
80	0x00000000	0.0
81	0x00000000	0.0
82	0x00000000	0.0
83	0x00000000	0.0
84	0x00000000	0.0
85	0x00000000	0.0
86	0x00000000	0.0
87	0x00000000	0.0
88	0x00000000	0.0
89	0x00000000	0.0
90	0x00000000	0.0
91	0x00000000	0.0
92	0x00000000	0.0
93	0x00000000	0.0
94	0x00000000	0.0
95	0x00000000	0.0
96	0x00000000	0.0
97	0x00000000	0.0
98	0x00000000	0.0
99	0x00000000	0.0
100	0x00000000	0.0
101	0x00000000	0.0
102	0x00000000	0.0
103	0x00000000	0.0
104	0x00000000	0.0
105	0x00000000	0.0
106	0x00000000	0.0
107	0x00000000	0.0
108	0x00000000	0.0
109	0x00000000	0.0
110	0x00000000	0.0
111	0x00000000	0.0
112	0x00000000	0.0
113	0x00000000	0.0
114	0x00000000	0.0
115	0x00000000	0.0
116	0x00000000	0.0
117	0x00000000	0.0
118	0x00000000	0.0
119	0x00000000	0.0
120	0x00000000	0.0
121	0x00000000	0.0
122	0x00000000	0.0
123	0x00000000	0.0
124	0x00000000	0.0
125	0x00000000	0.0
126	0x00000000	0.0
127	0x00000000	0.0

lstm_W f4 [1, 512, 3]
0	0xbd16cf31	-0.036818687
1	0xbc037927	-0.00802449
2	0xbd033abc	-0.032038435
3	0x3d59d86b	0.053184908
4	0xbc9f87f0	-0.019474
5	0xbccba955	-0.024861017
6	0x3cdb9f9d	0.026809508
7	0x3da06884	0.07832435
8	0xbd57ce44	-0.052686945
9	0xbde02448	-0.1094442
10	0xbceb0711	-0.028689893
11	0x3dc7232d	0.09723506
12	0xbddb84d7	-0.107186966
13	0x3c0bbeee	0.008529408
14	0xbddc9174	-0.107699305
15	0x3d3b4343	0.045718443
16	0xbcb6d02d	-0.022316063
17	0x3dbf1fdd	0.09332249
18	0xbbdee6b4	-0.0068024043
19	0xbc0b95df	-0.008519619
20	0xbd26f40a	-0.040760078
21	0x3d90a67d	0.07063005
22	0xbd110242	-0.035402544
23	0xbd927958	-0.07152051
24	0xbd386233	-0.045015525
25	0x3d790d6e	0.060803823
26	0x3e0d6ef7	0.13811861
27	0xbd586f25	-0.05284037
28	0x3dc06523	0.0939429
29	0x3c3ac273	0.011398899
30	0x3d3b143d	0.045673598
31	0xbd053ae0	-0.03252685
32	0x3d65db06	0.05611708
33	0xbd20646c	-0.03915827
34	0x3a978210	0.0011559147
35	0xbcc70b4e	-0.024297383
36	0xbc6196de	-0.01376888
37	0x3ddf8afe	0.109151825
38	0xbdbfe97e	-0.09370707
39	0xbe0516c4	-0.12996966
40	0x3cf2adb6	0.029623847
41	0xbb3dedfb	-0.0028980959
42	0x3a076fb6	0.00051664875
43	0xbdab67e3	-0.08369424
44	0xba0083e4	-0.0004902466
45	0x3df0a4dc	0.117501944
46	0xbdbfaede	-0.09359525
47	0x3d06c4d5	0.032902557
48	0x3d769038	0.06019613
49	0xbb5db31c	-0.0033828681
50	0x3ca1426f	0.019684998
51	0x3d28d68d	0.041220237
52	0x3d94d853	0.07267823
53	0x3d95dbd8	0.073173225
54	0xbd2ec52b	-0.042668503
55	0x3dc3c0c1	0.09558249
56	0x3d943e0f	0.07238399
57	0xbd69df0b	-0.057097476
58	0xbc3a8b34	-0.011385728
59	0xbb8426da	-0.004032952
60	0x3cf4d0aa	0.029884655
61	0xbc607de1	-0.013701887
62	0xbc9875db	-0.018610885
63	0x3c19efa7	0.0093955165
64	0xbd92ba10	-0.07164395
65	0x3d7de0e9	0.06198207
66	0x3d83e5a2	0.06440283
67	0x3ce7c355	0.028291384
68	0xbd7a0051	-0.061035458
69	0x3c841553	0.01612345
70	0xbcefc3c2	-0.02926815
71	0xbd1a7530	-0.037709415
72	0xbdac3c32	-0.08409919
73	0x3dc7f03e	0.097626194
74	0x3d3712b8	0.044695586
75	0x3bfc15a8	0.0076930113
76	0x3cfde6d4	0.030993856
77	0x3d831958	0.06401318
78	0xbd75c907	-0.060006168
79	0xbd202607	-0.039098766
80	0x3dcafd35	0.09911577
81	0x3dc4d880	0.096116066
82	0xbd4d3cae	-0.050106697
83	0x3dee7023	0.11642482
84	0x3dd2052b	0.10254892
85	0x3d6213c9	0.05519465
86	0x3d0e3598	0.03471908
87	0x3cd037d9	0.025417255
88	0x3d7a0d7e	0.061048023
89	0x3da7ddd4	0.08196607
90	0x3d0d073a	0.03443072
91	0x3dbdfb4b	0.09276446
92	0x3d0252c5	0.031817216
93	0xbcb1fda4	-0.02172739
94	0xbc68c2b9	-0.014206582
95	0x3d9a1ee7	0.075254254
96	0xbdd47efe	-0.10375784
97	0xbd832627	-0.06403761
98	0x3db9c6ec	0.090711445
99	0xbcb504f6	-0.022097092
100	0x3caf21f5	0.021378497
101	0xbd61553c	-0.055012926
102	0x3d6044f8	0.054753274
103	0x3cf9898c	0.030461095
104	0x3def3dd0	0.11681712
105	0xbdadc4b2	-0.08484782
106	0x3d3461ea	0.04403869
107	0xbd7f4d40	-0.06232953
108	0x3d7bea87	0.06150296
109	0x3db24877	0.08705228
110	0x3d850c7b	0.06496521
111	0xbdcd124b	-0.10013255
112	0xbdb1d367	-0.086829
113	0xbd437b30	-0.047724903
114	0x3cd69533	0.02619419
115	0xbd5c7195	-0.053819258
116	0x3ce9a344	0.028520234
117	0x3d445a25	0.04793753
118	0xbd9a06fc	-0.075208634
119	0xbd09a98c	-0.033608958
120	0xbda91c92	-0.082574025
121	0x3d160332	0.03662414
122	0xba92c507	-0.0011197635
123	0x3d673b59	0.056453083
124	0x3cf205c9	0.029543774
125	0xbd656863	-0.056007754
126	0x3d181830	0.037132442
127	0x3b8c04ba	0.0042730244
128	0xbdaa17c6	-0.08305316
129	0x3d10aae7	0.035319235
130	0xbc3370de	-0.010952203
131	0xbd30d86b	-0.043175142
132	0xbde0ffc9	-0.10986287
133	0xbd85a78b	-0.06526097
134	0x3df97dbb	0.12182184
135	0x3d11b16b	0.03556959
136	0x3cf15437	0.029459102
137	0xbda67305	-0.08127407
138	0x3cde92e5	0.027169654
139	0xbd92fbe2	-0.07176949
140	0xbde6d0c1	-0.112702854
141	0x3dd38cda	0.103296
142	0x3d8b59c6	0.06804232
143	0xbdaa5e3c	-0.08318755
144	0xbde73e9c	-0.11291239
145	0x3ddb5340	0.10709238
146	0x3deda6be	0.11604069
147	0xbd694c4e	-0.056957535
148	0x3d8b727e	0.06808947
149	0x3de018bc	0.10942218
150	0x3d9966ec	0.07490334
151	0x3cec7ac1	0.028867127
152	0xbd82ab11	-0.063802846
153	0xbcc7be84	-0.024382837
154	0x3c606594	0.013696093
155	0x3dd04814	0.10169998
156	0xbd5b0e97	-0.05348071
157	0x3ac13047	0.0014739119
158	0xbdf7d6e9	-0.12101538
159	0x3dc222c3	0.094792865
160	0xbcf67cc6	-0.030088793
161	0x3dcbccfc	0.09951207
162	0xbd4a6f50	-0.049422562
163	0xbd4b1dc2	-0.049588926
164	0x3df2a3c9	0.11847646
165	0x3b5f840a	0.00341058
166	0x3d4645c7	0.04840639
167	0x3db5941d	0.08866141
168	0x3c1f91bb	0.009739335
169	0x3d5f9f8f	0.054595526
170	0xbd4aa229	-0.049471054
171	0xbdcd8188	-0.10034472
172	0x3d3d3cf8	0.046200722
173	0x3dc32be9	0.095298596
174	0xbdf7d71e	-0.12101577
175	0xbbb20511	-0.005432733
176	0x3cfe474d	0.031039858
177	0xbab8c380	-0.001409635
178	0xbce0a1b2	-0.027420852
179	0xbc91dbdf	-0.017805038
180	0x3d8e9c90	0.06963456
181	0x3a5dce67	0.00084612373
182	0xbc74b889	-0.014936575
183	0x3d627af7	0.05529305
184	0xbcf55ed3	-0.029952442
185	0xbc83d86e	-0.016094413
186	0x3d120525	0.035649437
187	0x3d2f26bb	0.042761546
188	0x3db0f961	0.08641315
189	0x3ca43f61	0.020049753
190	0x3cc62e99	0.024192141
191	0x3d4365b1	0.047704402
192	0x3d46647a	0.048435666
193	0x3d1d205b	0.038360935
194	0x3d827a48	0.063709795
195	0xbb98a785	-0.0046586418
196	0xbd328a4f	-0.043588933
197	0x3d97d28f	0.07413208
198	0xbdb06c4e	-0.086144075
199	0xbd4e9545	-0.050435323
200	0xbc0f0c8a	-0.008731017
201	0xbd1a9598	-0.03774032
202	0x3a8d7bf4	0.0010794387
203	0x3d9a62c8	0.07538372
204	0xbd7c70c1	-0.061630968
205	0x3d717d32	0.058957286
206	0x3d8d1b27	0.068899445
207	0xbd7abe42	-0.0612166
208	0xbcb96b04	-0.022634037
209	0xbd5bab7a	-0.05363033
210	0x3cebca15	0.028782884
211	0xbd8f83de	-0.070075735
212	0xbd872682	-0.06599142
213	0xbdd41dbe	-0.10357235
214	0xbd913813	-0.070907734
215	0x39ec33cb	0.00045052017
216	0x3d83feef	0.06445109
217	0x3da91909	0.08256728
218	0x3ba66940	0.0050784647
219	0x3de1828b	0.11011227
220	0x3d88eb6a	0.06685527
221	0x3d8aab34	0.06770936
222	0x3ddce7c1	0.10786391
223	0xbd26e25e	-0.040743224
224	0x3dd8bbc7	0.10582691
225	0xbd83fd0f	-0.064447515
226	0x3dab0cca	0.08352049
227	0xbc583e6a	-0.013198474
228	0x3c8b5498	0.01700811
229	0xbc276497	-0.010216854
230	0x3e00b605	0.12569435
231	0xbbbf0904	-0.005829932
232	0x3df5529b	0.11978646
233	0xbd98808b	-0.074463926
234	0xbd9b3f25	-0.07580403
235	0xbc600a37	-0.01367431
236	0x3cd3a792	0.02583674
237	0x3d2af2b1	0.041735355
238	0x3ccb78ef	0.024837939
239	0xbd92a1ce	-0.07159768
240	0x3db96be0	0.09053779
241	0x3d9c9468	0.07645494
242	0xbd147397	-0.036243048
243	0x3d825d74	0.06365481
244	0x3d2a0945	0.041512746
245	0xbd249ea5	-0.040190358
246	0xbcc936b1	-0.024562212
247	0x3da42650	0.0801512
248	0xbd9f7310	-0.07785618
249	0x3d27c41f	0.04095852
250	0x3d8eeea2	0.06979109
251	0xbc9c20a0	-0.019058526
252	0x3c3fea7b	0.011713619
253	0xbd985e11	-0.07439817
254	0x3df2b0cf	0.1185013
255	0x3c910c7e	0.017706152

lstm_R f4 [1, 512, 128]
0	0xbb03bf7e	-0.0020103152
1	0xbc82dfe7	-0.015975906
2	0x3c98394c	0.018582009
3	0x3d1bdf76	0.038054906
4	0x3d5b4f55	0.053542454
5	0x3cfd2739	0.030902492
6	0x3c146619	0.009057545
7	0x3c5defe0	0.01354596
8	0xbd083318	-0.03325185
9	0xbd0bd109	-0.0341349
10	0x3c5c9a51	0.013464526
11	0x3ca96697	0.020678801
12	0x3c0c07f4	0.008546818
13	0xbca36c8b	-0.019949218
14	0x3d0448e4	0.032296076
15	0x3baa24c5	0.0051923716
16	0xbd21eeab	-0.039534252
17	0x3bf55b6a	0.007487704
18	0xbd83a7c3	-0.064284824
19	0xbd7571f2	-0.05992312
20	0x3d710c80	0.05884981
21	0x39df1e96	0.00042556663
22	0x3c8eefd6	0.017448347
23	0xbbe5452b	-0.006996771
24	0xbcd5926d	-0.026070798
25	0xbcb1ba0d	-0.021695161
26	0x3d8cbd98	0.068721
27	0xbc0495e0	-0.008092374
28	0x3cd55b45	0.026044497
29	0x3d128fc6	0.035781644
30	0x3c7ec697	0.015550277
31	0x3b96c5d0	0.004601218
32	0xbc767678	-0.015042894
33	0x3d17fe1e	0.03710758
34	0xbc1f8df3	-0.009738433
35	0xbd29569d	-0.041342366
36	0xbc329d7b	-0.010901804
37	0x3ca65826	0.020305704
38	0xbd093f7f	-0.03350782
39	0x3bbab12a	0.005697389
40	0x3d0ceca0	0.03440535
41	0xbda630e3	-0.08114793
42	0x3d68cc42	0.05683542
43	0xbd752d4f	-0.059857663
44	0xbdbafb0e	-0.09129916
45	0xbcaf1b8c	-0.02137544
46	0xbd4302eb	-0.047610205
47	0x3c510b2d	0.012759012
48	0x3d5b8009	0.0535889
49	0x3c2b4e4e	0.010455681
50	0x3d5401f9	0.051759694
51	0x3d1dc51c	0.038518056
52	0xbd013557	-0.03154501
53	0x3c204365	0.009781693
54	0x3d240f4e	0.04005366
55	0xbc52a7f4	-0.012857426
56	0xbd849541	-0.064737804
57	0xbce431ee	-0.02785584
58	0x3c90d512	0.017679725
59	0xbd234b00	-0.039866447
60	0xbc9b7bd3	-0.018979942
61	0xbd1d1fa3	-0.03836025
62	0x38b11c72	8.445316e-05
63	0xbc9096ec	-0.01765009
64	0xbcdbe29c	-0.026841454
65	0x3c87ef26	0.016593527
66	0x3d12ec18	0.035869688
67	0x3d1da85d	0.03849064
68	0x3b86255b	0.0040938086
69	0x3bd895a0	0.0066096336
70	0x3bb93ce5	0.005653011
71	0x3aa35dae	0.0012463832
72	0x3cb75607	0.022379888
73	0xbccc9c10	-0.02497676
74	0x3ce7e1fa	0.028305996
75	0x3cadd8ee	0.021221604
76	0x3cd6b413	0.026208913
77	0xbbb89110	-0.005632527
78	0xbd06c1ac	-0.032899544
79	0xbbf0edc5	-0.007352563
80	0xbcf4c484	-0.029878862
81	0xbc83875b	-0.016055753
82	0x3d1c5545	0.038167257
83	0x3ca8bfbc	0.020599239
84	0x3d1d6454	0.03842576
85	0x3db93971	0.09044159
86	0xbbedea4b	-0.007260596
87	0x3d03c0e0	0.03216636
88	0xbc29f962	-0.010374399
89	0x3d042e4e	0.032270722
90	0xbd3ad025	-0.04560866
91	0xbce6b116	-0.028160613
92	0x3d4aa563	0.04947413
93	0xbd23f3fe	-0.04002761
94	0xbd94b0c6	-0.07260279
95	0xbd9fc905	-0.07802013
96	0xbc4678c8	-0.012113757
97	0x3c846ff9	0.016166674
98	0x3c439cf3	0.011939275
99	0x3c2e2eaf	0.010631247
100	0xbc4a67f0	-0.012353882
101	0x3d08d10e	0.033402495
102	0x3d543fb7	0.051818576
103	0x3d1bd99f	0.038049337
104	0x3ba166fa	0.004925606
105	0x3c6f1058	0.014591299
106	0x3ca9ad83	0.02071262
107	0x3cbf3e56	0.023345154
108	0x3d9e92c1	0.07742835
109	0xbd602d9f	-0.054731008
110	0x3d2e02f3	0.04248328
111	0x3cd773e5	0.02630038
112	0x3cb62a7f	0.02223706
113	0x3cd92397	0.026506228
114	0x3c568dba	0.013095314
115	0x3c82d185	0.015969047
116	0xbcb7e0ae	-0.022446003
117	0xbd58014f	-0.052735623
118	0xbd8690bb	-0.06570574
119	0x3cafd71d	0.021464879
120	0xbbb88305	-0.005630853
121	0xbc86bd2c	-0.016447626
122	0xbd8361e9	-0.06415159
123	0xbd33876a	-0.043830313
124	0x3d0dc5f8	0.034612626
125	0x3cf90b3e	0.030400869
126	0xbcead333	-0.02866516
127	0x3b9b3b7c	0.0047373157
128	0xbcc27b71	-0.023740502
129	0x3d625184	0.05525352
130	0xbb791390	-0.0038006045
131	0xbcc8c4f2	-0.024507973
132	0xbd6db3e2	-0.058032878
133	0xbc85edcd	-0.016348744
134	0xbd923a5f	-0.0714004
135	0x3d236393	0.039889883
136	0x3c0cbe94	0.008590359
137	0xbd1632a2	-0.03666938
138	0xbc4e81d6	-0.0126041975
139	0x3cd5e64b	0.026110789
140	0xbd6ca04f	-0.05777007
141	0x3dafefaf	0.08590638
142	0xbd8ab234	-0.06772271
143	0x3b94e8eb	0.0045443675
144	0xbd08e716	-0.033423506
145	0x3c8a4eee	0.01688334
146	0xbc036bfc	-0.008021351
147	0x3d0ef5d4	0.03490241
148	0xbcd5059e	-0.026003655
149	0x3d0954fb	0.03352831
150	0x3dc6044b	0.096687876
151	0xbca1dfaf	-0.019759981
152	0xbcd9e7ad	-0.02659973
153	0xbc8df779	-0.017329918
154	0x3d6bf258	0.057604164
155	0x3caba097	0.020950599
156	0xbbf50660	-0.0074775666
157	0xbd28fd81	-0.041257385
158	0x3c1c38f3	0.009535062
159	0x3d80a11b	0.062807284
160	0x3c6ad61f	0.014333277
161	0xbd02ece4	-0.031964198
162	0xbb9147d7	-0.004433613
163	0x3d00bb78	0.031428784
164	0xbc216a8a	-0.009852061
165	0xbd109629	-0.035299454
166	0x3d071c90	0.032986224
167	0xbd78badb	-0.060725074
168	0x3ca9e160	0.02073735
169	0x3cf62f55	0.030051867
170	0x3cb2697f	0.02177882
171	0xbad04307	-0.0015889116
172	0x3c956b18	0.018239543
173	0xbb207d9c	-0.0024488932
174	0x3ce7a02f	0.028274624
175	0x3bbe8591	0.005814262
176	0xbceb799f	-0.028744517
177	0xbc069c23	-0.008215937
178	0x3d571e74	0.052519277
179	0x3cdd04ab	0.026979765
180	0xbd6096e1	-0.05483139
181	0x3d738c07	0.059459712
182	0xbc9e0a2b	-0.019291958
183	0x3cbeb933	0.02328167
184	0xbccca3af	-0.024980394
185	0x3a508dd7	0.0007955706
186	0xbd38c0e0	-0.045105815
187	0xbd0702aa	-0.032961525
188	0xbc68a0e7	-0.014198518
189	0xbd169417	-0.036762323
190	0x3c83c50e	0.016085174
191	0x3d682449	0.05667523
192	0x3c8da3c9	0.017290013
193	0xbdd2d050	-0.10293639
194	0x3d14a7e3	0.03629292
195	0x3becfa6e	0.007232002
196	0x3db58c81	0.088646896
197	0xbc70e851	-0.014703826
198	0xbdc1df61	-0.09466434
199	0xbd84fa9a	-0.06493111
200	0xbbd8ae8f	-0.006612606
201	0x3d0be9ee	0.03415864
202	0x3d164339	0.036685202
203	0x3cc5676c	0.024097167
204	0x3b882913	0.004155287
205	0xbc834b38	-0.016027078
206	0xbba49925	-0.005023139
207	0xbc1a00b5	-0.009399583
208	0xbd5c3a1c	-0.053766355
209	0xbc879111	-0.016548665
210	0x3d3984e4	0.04529275
211	0xbd94c582	-0.07264234
212	0x3c563cde	0.013076035
213	0x3b9ad3e5	0.004724967
214	0x3d46a917	0.0485011
215	0x3d4b07d8	0.049568027
216	0x3c2dd05c	0.010608759
217	0x39b70b19	0.00034912748
218	0x3d43d93d	0.047814596
219	0xbcad00e9	-0.021118598
220	0xbd14ad23	-0.03629793
221	0x3ce13d9a	0.027495194
222	0xbbbce09a	-0.0057640793
223	0x3d6c4e59	0.057691906
224	0x3d894d01	0.067041405
225	0x3c7256d9	0.014791214
226	0xbd1c5bb2	-0.038173385
227	0xbc010a5c	-0.007876005
228	0x3cf3a26d	0.029740537
229	0xbc13ab6c	-0.009013038
230	0xbd97c4d8	-0.07410592
231	0x3bf21fa1	0.0073890244
232	0xbd5df211	-0.05418593
233	0xbbdc56ee	-0.00672423
234	0xbcc57edb	-0.024108341
235	0x3d1c5661	0.038168315
236	0x3d467592	0.048451968
237	0xbcbf7a83	-0.023373848
238	0xbc46dcf6	-0.012137642
239	0x3c9b03e4	0.018922754
240	0xbbcc05e6	-0.006226289
241	0xbd35d190	-0.044389307
242	0xbd0fb963	-0.035088908
243	0x3d412ff6	0.04716488
244	0x3d063cbc	0.032772765
245	0x3d87e3b6	0.06635229
246	0xbbc3344d	-0.0059571625
247	0x3cd9cbf3	0.026586508
248	0xbb0f6cb6	-0.0021884865
249	0xbb2267bc	-0.0024781069
250	0x3b0f2e34	0.0021847608
251	0x3cd2b482	0.025720838
252	0xbbfe29b0	-0.0077564344
253	0x3d0251e7	0.03181639
254	0xbd180470	-0.037113607
255	0xbc26ba41	-0.010176242

lstm_B f4 [1, 1024]
0	0x3ccf5400	0.025308609
1	0x3d138ed1	0.036024872
2	0x3c970544	0.018435128
3	0x3c1757fa	0.009237284
4	0x3ba5c007	0.005058292
5	0x3b937e0d	0.0045011104
6	0x3d1f8432	0.03894443
7	0x3ba9dc4e	0.005183733
8	0x3ce35088	0.027748361
9	0x3c9cbb0b	0.019132158
10	0x3c5ba28a	0.013405452
11	0x3cf15100	0.02945757
12	0x3c5a7523	0.013333592
13	0xb9f5582a	-0.0004679573
14	0x3cca80a1	0.024719538
15	0x3cb88a12	0.022526775
16	0x3d2c8933	0.04212303
17	0x3d17da8d	0.03707366
18	0x3c8dd719	0.01731448
19	0xbc5906be	-0.013246236
20	0x3ce88b33	0.028386688
21	0x3cc1cac8	0.023656264
22	0x3d4a610e	0.049408965
23	0x3c8536dd	0.016261512
24	0x3b08716f	0.0020819565
25	0x3d42542c	0.047443554
26	0x3cd85704	0.02640868
27	0x3bd2a6c0	0.0064285696
28	0xbca04024	-0.019561835
29	0x3d0e1719	0.034689996
30	0x3d36d2d9	0.044634674
31	0x3d152e36	0.036421023
32	0x3d1b741e	0.037952535
33	0x3d0a02c1	0.033694033
34	0x3cb13199	0.021630095
35	0x3d386718	0.045020193
36	0x3cc18b39	0.023625957
37	0xbc17c00b	-0.009262095
38	0x3c425a35	0.011862327
39	0x3cc3fee3	0.02392525
40	0x3cfe3fd5	0.031036297
41	0x3c8efad0	0.017453581
42	0xbcd2ce37	-0.025733097
43	0x3cf17c03	0.029478079
44	0x3ca956b0	0.020671219
45	0x3cd49e49	0.025954382
46	0x3c10b2a7	0.008831657
47	0x3cf39807	0.029735578
48	0x3d2c83fa	0.04211805
49	0x3c843873	0.016140198
50	0xbcb7ad7b	-0.02242159
51	0x3d0ce943	0.034402143
52	0x3d2b7deb	0.04186813
53	0x3bc24c61	0.005929515
54	0x3d1c3b57	0.03814253
55	0x3babf842	0.0052481005
56	0x3bf2a75f	0.007405206
57	0x3ceec6f4	0.029147603
58	0x3cac6dd8	0.021048471
59	0x3d0c735e	0.03428971
60	0x3d023a1b	0.031793695
61	0x3d5e9903	0.054345142
62	0x3d383b13	0.044978213
63	0x3cda5425	0.026651451
64	0xba3b0f36	-0.00071357505
65	0x3c48feb4	0.012267757
66	0x3d138ec8	0.03602484
67	0x3d177ad3	0.03698237
68	0x3cb5afbf	0.022178529
69	0x3c665958	0.014059387
70	0x3bcaa870	0.00618463
71	0x3cea7b9d	0.028623397
72	0x3cb5abef	0.02217671
73	0x3ca8f432	0.020624254
74	0x3d15a7c8	0.03653696
75	0x3cda2f93	0.026634013
76	0x3d0039c9	0.03130511
77	0x3ca565d2	0.020190153
78	0x3cd8c23b	0.026459804
79	0x3d1b1619	0.03786287
80	0xbc4834a0	-0.012219578
81	0xbc1801db	-0.009277786
82	0x3ca39115	0.019966641
83	0x3d3ea7a4	0.046546593
84	0x3cae90ab	0.021309217
85	0xbb359239	-0.0027705564
86	0x3ccd972a	0.025096495
87	0x3c690ce0	0.014224261
88	0xbbd4ceca	-0.0064943777
89	0x3c37c1ff	0.011215686
90	0x3ce13db1	0.027495237
91	0x3ba096f3	0.004900807
92	0x3cc9fd44	0.0246569
93	0x3b6386f3	0.0034717887
94	0xbc88f76e	-0.016719546
95	0x3d1698c5	0.036766786
96	0x3c83157c	0.016001455
97	0x3c4ac09d	0.012375024
98	0x3d0e5aaf	0.03475445
99	0x3d137ded	0.036008764
100	0xbc6696b8	-0.01407402
101	0x3ccdf441	0.025140883
102	0x3c6e6b1a	0.014551902
103	0x3ca2ed1b	0.019888451
104	0x3c8d295c	0.017231636
105	0xbc4c10cb	-0.012455176
106	0xbc011684	-0.007878903
107	0x3d69c5ff	0.05707359
108	0x3cb575fa	0.022150982
109	0x3d454eb8	0.048170775
110	0x3c7df49c	0.015500214
111	0x3ca44e7a	0.020056952
112	0x3d357417	0.044300165
113	0x3c5fc5d0	0.013658002
114	0xbc3b8d0f	-0.011447205
115	0x3cf7ca14	0.030247726
116	0x3ce5e4a1	0.02806312
117	0x3cd15450	0.025552899
118	0x3d2a6ee8	0.041609675
119	0x3c8fc348	0.017549172
120	0x3cc411e3	0.02393431
121	0x3b2b2ebf	0.0026120392
122	0x3c9f81c1	0.019471051
123	0x3d0c80e6	0.034302615
124	0x3cf886e4	0.030337758
125	0x3c85ff30	0.016357034
126	0x3ccfc3aa	0.025361855
127	0x3d582dc7	0.05277803
128	0x3ccba253	0.024857676
129	0x3d0df749	0.034659658
130	0x3c8911e4	0.016732164
131	0x3bdc860d	0.0067298473
132	0x3b9799d6	0.004626493
133	0x3b70bada	0.0036732466
134	0x3d13387e	0.035942547
135	0x3b1fa14c	0.0024357615
136	0x3cd5e73a	0.026111234
137	0x3c4794fb	0.012181516
138	0x3c263b4f	0.010145976
139	0x3cd1cdcd	0.025610829
140	0x3c3c378a	0.011487851
141	0xb99b1818	-0.00029581855
142	0x3c9cda36	0.01914702
143	0x3ccfddb2	0.025374267
144	0x3d13c996	0.03608092
145	0x3cff6e08	0.031180397
146	0x3c6cf7c7	0.014463372
147	0xbc5bf2e1	-0.013424606
148	0x3cd43569	0.025904374
149	0x3cbe1d14	0.023207225
150	0x3d4c565b	0.049887042
151	0x3c5c5f75	0.013450493
152	0x399ad364	0.00029530667
153	0x3d434c26	0.047680043
154	0x3ccc8e71	0.024970265
155	0x3b85a1cc	0.0040781256
156	0xbca4072f	-0.020022957
157	0x3c91fc99	0.017820643
158	0x3d2a2dd9	0.04154763
159	0x3d013a22	0.03154958
160	0x3d16201a	0.03665171
161	0x3cb3a40f	0.021928815
162	0x3ca7abb6	0.02046762
163	0x3d3879f4	0.04503818
164	0x3ca6d275	0.020364026
165	0xbc174ce4	-0.009234641
166	0x3c1438a4	0.009046707
167	0x3cb3dfe6	0.021957349
168	0x3ce95909	0.028484838
169	0x3c9c5983	0.019085651
170	0xbcc54a83	-0.024083382
171	0x3cc7fa59	0.024411367
172	0x3c9fc3a0	0.019502461
173	0x3cd799b6	0.026318412
174	0x3ba14925	0.0049220496
175	0x3cd83622	0.026393
176	0x3d1ba209	0.037996326
177	0x3c7c8213	0.0154118715
178	0xbcbf3db4	-0.023344852
179	0x3ceb9c3c	0.028761022
180	0x3d2460ef	0.040131506
181	0x3c33d94f	0.010977103
182	0x3cb23feb	0.021758994
183	0xba44b934	-0.0007504404
184	0x3be38d6c	0.006944349
185	0x3cd83424	0.02639205
186	0x3c8d46b2	0.017245624
187	0x3ce8fad9	0.028439926
188	0x3ce3fd81	0.027830841
189	0x3d6d241f	0.057895776
190	0x3d2f2560	0.042760253
191	0x3cd7a6a5	0.02632458
192	0xbb1484ae	-0.002266209
193	0x3bf2a939	0.007405427
194	0x3d00dc1b	0.03145991
195	0x3d13ae2f	0.036054786
196	0x3ca29b34	0.019849397
197	0x3c43b182	0.011944177
198	0xbaacb017	-0.0013175037
199	0x3ce3c020	0.027801573
200	0x3c9e7561	0.01934308
201	0x3c8b4830	0.017002195
202	0x3d10ea78	0.035379857
203	0x3cc3a3e5	0.023881862
204	0x3cdbfc5a	0.026853729
205	0x3c89caa2	0.016820256
206	0x3c99f58d	0.018793846
207	0x3d115ed8	0.03549084
208	0xbc455e06	-0.012046343
209	0xbc1ad233	-0.009449529
210	0x3c8db2e4	0.017297216
211	0x3d2ed9e5	0.04268827
212	0x3ca747e7	0.020420028
213	0xbb7600d9	-0.0037537126
214	0x3cbdd13a	0.023171056
215	0x3c522a8d	0.012827528
216	0xbbe1188b	-0.006869381
217	0x3be0519e	0.006845667
218	0x3cd89c3b	0.026441684
219	0x3be64c4f	0.0070281397
220	0x3cc2a5e4	0.023760743
221	0x3c180ad3	0.009279924
222	0xbc8510bb	-0.01624333
223	0x3d1623c0	0.036655188
224	0x3c8abaed	0.016934836
225	0x3c556b40	0.013026059
226	0x3ce3316f	0.027733533
227	0x3d0fc343	0.035098325
228	0xbc673c14	-0.014113445
229	0x3cbf19bb	0.023327699
230	0x3bad2b36	0.005284692
231	0x3c4d838a	0.012543568
232	0x3c51fdfb	0.012816901
233	0xbc522062	-0.0128251035
234	0xbc0a3026	-0.008434331
235	0x3d5be4da	0.053685047
236	0x3c9ee1c1	0.019394757
237	0x3d347f6c	0.04406683
238	0x3c82e0cb	0.01597633
239	0x3c98c094	0.018646516
240	0x3d0e26ea	0.03470508
241	0x3bcc4be7	0.006234634
242	0xbc3c163e	-0.011479912
243	0x3cbc040a	0.022951145
244	0x3ca838bb	0.020534864
245	0x3caf369f	0.02138835
246	0x3d195e16	0.037443243
247	0x3c79d6f8	0.015249006
248	0x3caa0221	0.020752968
249	0x3b32c665	0.0027278897
250	0x3c8d4b29	0.017247753
251	0x3d170579	0.036870454
252	0x3cf21986	0.029553186
253	0x3c546f68	0.012966014
254	0x3cba883d	0.022770042
255	0x3d1601cb	0.036622804

fc_MatMul_W f4 [128, 3]
0	0x3dcdab44	0.10042432
1	0xbe40f14d	-0.18842049
2	0x3c353757	0.011060557
3	0x3e1a40d2	0.1506379
4	0xbe3f34e2	-0.18672517
5	0x3e4be81c	0.19912761
6	0x3d75eedd	0.06004225
7	0xbe2b0dcc	-0.16704482
8	0xbced8c68	-0.028997615
9	0xbe25b893	-0.1618369
10	0x3e395d40	0.18101978
11	0x3e449f04	0.19201285
12	0xbe39d38f	-0.1814711
13	0x3dec4ce8	0.11538106
14	0x3bd5658c	0.0065123495
15	0xbe5cef49	-0.21575655
16	0xbe3acbfc	-0.18241876
17	0x3e57e261	0.2108245
18	0x3da7c3b3	0.081916235
19	0xbe5d67d7	-0.21621643
20	0xbd3c6d71	-0.04600281
21	0x3e747ba1	0.23875286
22	0x3e380d84	0.17973906
23	0xbe3434c8	-0.1759826
24	0x3d1f9a42	0.03896547
25	0x3d9beb33	0.0761322
26	0xbe0b1b70	-0.13584685
27	0xbd94cb34	-0.072653204
28	0xbdba88a2	-0.09108092
29	0x3e653844	0.22384745
30	0x3e385d71	0.18004395
31	0x3d5da9d3	0.054117035
32	0xbe50f87f	-0.20407294
33	0xbe167b20	-0.14695406
34	0x3c4bfe75	0.012450804
35	0x3dea87fd	0.11451719
36	0x3d4c3893	0.04985864
37	0xbcd12ab9	-0.025533067
38	0x3e5775a9	0.21040978
39	0xbe20f383	-0.15717892
40	0xbcd1ebc3	-0.025625115
41	0xbdf23622	-0.11826731
42	0xbe1db624	-0.15401512
43	0x3e3af7db	0.18258612
44	0x3e713a5e	0.23557422
45	0xbd678405	-0.056522388
46	0xbe0e6daf	-0.13909028
47	0xbe36c16c	-0.17847222
48	0xbd1abfba	-0.0377805
49	0x3e1e40b2	0.15454367
50	0x3dfece91	0.12441743
51	0x3d70a0bf	0.05874705
52	0xbdf3659b	-0.11884614
53	0x3de85e57	0.11346119
54	0x3e15acdb	0.1461672
55	0x3dec7a32	0.115467444
56	0xbe29d7ff	-0.16586302
57	0x3e1dbf0f	0.15404914
58	0xbda6fc1e	-0.08153556
59	0xbdaa9b1f	-0.08330368
60	0x3e41e9bd	0.1893682
61	0xbd809f4c	-0.062803835
62	0x3d11f70f	0.035636004
63	0x3e246977	0.16055857
64	0xbde8139d	-0.11331866
65	0xbd6f234e	-0.05838328
66	0x3decf279	0.115696855
67	0xbe747918	-0.23874319
68	0xbd45226e	-0.048128538
69	0xbe64ec1c	-0.22355694
70	0xbe085a26	-0.13315639
71	0xbdc3d163	-0.09561422
72	0x3e033cc0	0.12816143
73	0xbe1ccfa2	-0.1531358
74	0x3e23075b	0.15920775
75	0x3b368a92	0.002785359
76	0xbdc447c3	-0.09584
77	0x3d1f258a	0.03885416
78	0xbe67dd0e	-0.2264292
79	0x3d6ca265	0.05777206
80	0x3e119ef0	0.14220786
81	0x3e00b0a6	0.12567386
82	0xbe1c06f5	-0.15237029
83	0x3e065179	0.13117017
84	0x3dd80b21	0.10548998
85	0x3dff5caa	0.12468846
86	0xbd8c71e0	-0.068576574
87	0x3e2881bf	0.16455744
88	0x3d8b0fa6	0.06790094
89	0xbdfc23bc	-0.12311503
90	0xbdbdce56	-0.09267871
91	0x3d16b457	0.03679308
92	0xbd221719	-0.03957281
93	0x3dbcee69	0.09225161
94	0xbd9c0f4a	-0.07620104
95	0xbd632191	-0.055451933
96	0x3d95bf9f	0.073119394
97	0xbd9ceb17	-0.07662027
98	0xbd2a50e8	-0.041581064
99	0xbdf299d4	-0.11845747
100	0x3d9f7d65	0.07787589
101	0x3de231e8	0.11044675
102	0xbe5c8fcd	-0.2153923
103	0xbdbd577c	-0.09245202
104	0x3dc8857f	0.09791087
105	0x3dced6e4	0.10099581
106	0xbd20d77b	-0.039268
107	0x3e12af69	0.14324726
108	0x3c6d5905	0.014486556
109	0x3e524bb3	0.2053669
110	0x3c6db3a8	0.014508165
111	0x3e4bb28e	0.19892332
112	0xbdd5b0eb	-0.10434135
113	0x3d75e402	0.0600319
114	0xbdd5692a	-0.10420449
115	0xbdae278f	-0.08503639
116	0x3cd653b6	0.026162963
117	0x3d651b28	0.0559341
118	0xbe6a2098	-0.22863996
119	0xbe664cf8	-0.22490299
120	0xbdad3a48	-0.08458382
121	0x3dc3b928	0.095568
122	0x3e66ae67	0.22527467
123	0x3d9f994c	0.07792911
124	0x3e0315d1	0.12801291
125	0x3c8173cf	0.015802292
126	0xbe2245b7	-0.15846907
127	0x3cf0dc3b	0.02940189
128	0x3e0c7293	0.13715582
129	0x3d91b73f	0.071150295
130	0x3dfbd057	0.12295597
131	0xbe02e871	-0.12783982
132	0x3e1190d4	0.14215404
133	0xbe0b2df1	-0.13591744
134	0x3dd2307b	0.10263153
135	0x3e1214aa	0.14265695
136	0xbd584a70	-0.052805364
137	0x3d930df3	0.07180395
138	0xbe731dcf	-0.2374184
139	0xbda3703c	-0.079803914
140	0x3c9cbb7f	0.019132374
141	0xbd0a0e5c	-0.0337051
142	0x3e5ee0ef	0.21765493
143	0x3cdf8bec	0.0272884
144	0xbdb2a1cc	-0.087222666
145	0x3c1c84e7	0.009553171
146	0xbe4290cc	-0.19000548
147	0x3e1a53ba	0.15071002
148	0xbe1cecab	-0.15324657
149	0xbdf51684	-0.11967185
150	0x3cd960ab	0.026535353
151	0xbe4112e1	-0.18854858
152	0x3dedfe89	0.11620814
153	0xbdea1edc	-0.11431667
154	0xbe00f8b7	-0.12594877
155	0x3e4c923a	0.19977656
156	0xbe103f34	-0.1408661
157	0xbdd8c7bd	-0.10584972
158	0xbd967d4d	-0.07348118
159	0xbcf8ea3d	-0.030385131
160	0x3d9cb03f	0.07650804
161	0xbe34b8f6	-0.17648682
162	0xbd0803a0	-0.033206582
163	0xbdbbcb7a	-0.091696694
164	0xbe43f638	-0.19136894
165	0xbe0a4cbf	-0.13505839
166	0xbe6de35f	-0.23231266
167	0xbd6a0637	-0.057134833
168	0xbda9607c	-0.08270356
169	0xbd2fcf1d	-0.042922128
170	0xbd244207	-0.04010203
171	0x3d0fa4d8	0.035069317
172	0xbdbca026	-0.092102334
173	0x3e1ace08	0.15117657
174	0x3e56b894	0.20968848
175	0xbe3483cf	-0.17628406
176	0xbc92dfa1	-0.0179289
177	0x3d63ea6a	0.055643477
178	0xbd4a9ee5	-0.04946794
179	0xbe2dc55a	-0.16969815
180	0xbd8fd6a5	-0.07023362
181	0xbd528694	-0.051397875
182	0x3e7f7479	0.24946775
183	0x3d57aa72	0.052652784
184	0xbe326948	-0.17422974
185	0x3e187e15	0.14891846
186	0x3e3527fe	0.17691037
187	0xbe30f0a4	-0.17279297
188	0xbdb1bdbd	-0.08678768
189	0x3da0b34e	0.078467
190	0xbda89e32	-0.08233298
191	0xbdacfb27	-0.08446341
192	0xbdbabb10	-0.091177106
193	0xbe0be044	-0.1365977
194	0xbdb21e54	-0.08697191
195	0xbe2f9f05	-0.17150505
196	0xbe4a1738	-0.1973542
197	0xbe45a3fd	-0.19300838
198	0xbdf969b7	-0.12178367
199	0xbe3fd6b9	-0.18734254
200	0x3e6800a8	0.226565
201	0x3dc27604	0.09495166
202	0xbe1f4245	-0.15552624
203	0xbd27ddfa	-0.040983178
204	0xbd0f20a0	-0.034943223
205	0x3dce8cf8	0.100854814
206	0xbde0bb8b	-0.10973271
207	0x3df31b23	0.1187041
208	0xbdd3c0e0	-0.10339522
209	0x3e2c0470	0.16798568
210	0xbe204a0d	-0.15653248
211	0x3dc50806	0.09620671
212	0xbe4d48fd	-0.20047374
213	0x3e03d4de	0.12874171
214	0xbaffb8d8	-0.0019510044
215	0x3e22a274	0.15882283
216	0xbe476ca5	-0.19475038
217	0x3bc389d4	0.005967358
218	0xbd50091e	-0.050789945
219	0xbd54e224	-0.051973477
220	0xbd9e8d31	-0.07741774
221	0xbe60c0d1	-0.21948554
222	0x3e18ec62	0.14933923
223	0x3dca6d11	0.09884084
224	0x3e09d8dd	0.13461633
225	0x3de66aeb	0.11250862
226	0x3e0dd840	0.13852024
227	0x3d131515	0.035908777
228	0xbd4dc000	-0.050231934
229	0xbe4cb5d0	-0.19991231
230	0xbe4a7c64	-0.19774014
231	0xbe0fec24	-0.14054924
232	0x3e55db14	0.20884353
233	0x3c2a6c69	0.010401824
234	0xbda1ef5b	-0.079069816
235	0x3e6149fa	0.22000876
236	0x3e50baaa	0.20383707
237	0xbe0c4acb	-0.13700406
238	0x3e49c726	0.19704875
239	0xbd109c55	-0.03530534
240	0xbd5990f6	-0.05311676
241	0x3e26fb24	0.1630674
242	0x3d0e3e1d	0.034727205
243	0x3cd29d3f	0.025709746
244	0xbdf86292	-0.12128176
245	0x3e1a77e2	0.15084794
246	0x3dcbbb86	0.09947877
247	0x3e106136	0.14099583
248	0xbe3e5b64	-0.1858955
249	0xbc306245	-0.010765617
250	0xbd849663	-0.064739965
251	0xbdcfa560	-0.10138965
252	0xbe40eeca	-0.18841091
253	0xbd480310	-0.048831046
254	0x3c79e913	0.015253323
255	0xbccc4db8	-0.024939403

fc_Add_B f4 [3]
0	0x3bfc1f25	0.0076941424
1	0xbc3b6151	-0.011436776
2	0x3c0f3ab0	0.0087420195
